…
keras.layers.normalization.batch_normalization.BatchNormalization object at 0x7fb9c018fb90> True\n","<keras.layers.core.dense.Dense object at 0x7fb9c016b590> True\n","<keras.layers.normalization.batch_normalization.BatchNormalization object at 0x7fb9c0112410> True\n","<keras.layers.core.dense.Dense object at 0x7fb9c0115e90> True\n","Model: \"sequential\"\n","_________________________________________________________________\n"," Layer (type)                Output Shape              Param #   \n","=================================================================\n"," conv2d_1 (Conv2D)           (None, 31, 98, 24)        1824      \n","                                                                 \n"," batch_normalization_1 (Batc  (None, 31, 98, 24)       96        \n"," hNormalization)                                                 \n","                                                                 \n"," conv2d_2 (Conv2D)           (None, 14, 47, 36)        21636     \n","                                                                 \n"," batch_normalization_2 (Batc  (None, 14, 47, 36)       144       \n"," hNormalization)                                                 \n","                                                                 \n"," conv2d_3 (Conv2D)           (None, 5, 22, 48)         43248     \n","                                                                 \n"," batch_normalization_3 (Batc  (None, 5, 22, 48)        192       \n"," hNormalization)                                                 \n","                                                                 \n"," conv2d_4 (Conv2D)           (None, 3, 20, 64)         27712     \n","                                                                 \n"," batch_normalization_4 (Batc  (None, 3, 20, 64)        256       \n"," hNormalization)                                                 \n","                                                                 \n"," conv2d_5 (Conv2D)           (None, 1, 18, 64)         36928     \n","                                                                 \n"," batch_normalization_5 (Batc  (None, 1, 18, 64)        256       \n"," hNormalization)                                                 \n","                                                                 \n"," flatten_1 (Flatten)         (None, 1152)              0         \n","                                                                 \n"," dense_1 (Dense)             (None, 100)               115300    \n","                                                                 \n"," batch_normalization_6 (Batc  (None, 100)              400       \n"," hNormalization)                                                 \n","                                                                 \n"," dense_2 (Dense)             (None, 50)                5050      \n","                                                                 \n"," batch_normalization_7 (Batc  (None, 50)               200       \n"," hNormalization)                                                 \n","                                                                 \n"," dense_3 (Dense)             (None, 10)                510       \n","                                                                 \n"," batch_normalization_8 (Batc  (None, 10)               40        \n"," hNormalization)                                                 \n","                                                                 \n"," dense_4 (Dense)             (None, 1)                 11        \n","                                                                 \n","=================================================================\n","Total params: 253,803\n","Trainable params: 121,191\n","Non-trainable params: 132,612\n","_________________________________________________________________\n"]},{"output_type":"execute_result","data":{"text/plain":["'\\nif check_point == 0:\\n  #c
…
